…
:{"colab":{"base_uri":"https://localhost:8080/"},"executionInfo":{"elapsed":1205,"status":"ok","timestamp":1704822872595,"user":{"displayName":"Breno Lima","userId":"14321360266775158244"},"user_tz":180},"id":"vJECTSvm8-Nx","outputId":"6d1896ec-c8cd-42b6-c6b6-65d02e84f970"},"outputs":[{"output_type":"stream","name":"stdout","text":["Model: \"sequential\"\n","_________________________________________________________________\n"," Layer (type)                Output Shape              Param #   \n","=================================================================\n"," conv2d (Conv2D)             (None, 46, 46, 64)        640       \n","                                                                 \n"," conv2d_1 (Conv2D)           (None, 46, 46, 64)        36928     \n","                                                                 \n"," batch_normalization (Batch  (None, 46, 46, 64)        256       \n"," Normalization)                                                  \n","                                                                 \n"," max_pooling2d (MaxPooling2  (None, 23, 23, 64)        0         \n"," D)                                                              \n","                                                                 \n"," dropout (Dropout)           (None, 23, 23, 64)        0         \n","                                                                 \n"," conv2d_2 (Conv2D)           (None, 23, 23, 128)       73856     \n","                                                                 \n"," batch_normalization_1 (Bat  (None, 23, 23, 128)       512       \n"," chNormalization)                                                \n","                                                                 \n"," conv2d_3 (Conv2D)           (None, 23, 23, 128)       147584    \n","                                                                 \n"," batch_normalization_2 (Bat  (None, 23, 23, 128)       512       \n"," chNormalization)                                                \n","                                                                 \n"," max_pooling2d_1 (MaxPoolin  (None, 11, 11, 128)       0         \n"," g2D)                                                            \n","                                                                 \n"," dropout_1 (Dropout)         (None, 11, 11, 128)       0         \n","                                                                 \n"," conv2d_4 (Conv2D)           (None, 11, 11, 256)       295168    \n","                                                                 \n"," batch_normalization_3 (Bat  (None, 11, 11, 256)       1024      \n"," chNormalization)                                                \n","                                                                 \n"," conv2d_5 (Conv2D)           (None, 11, 11, 256)       590080    \n","                                                                 \n"," batch_normalization_4 (Bat  (None, 11, 11, 256)       1024      \n"," chNormalization)                                                \n","                                                                 \n"," max_pooling2d_2 (MaxPoolin  (None, 5, 5, 256)         0         \n"," g2D)                                                            \n","                                                                 \n"," dropout_2 (Dropout)         (None, 5, 5, 256)         0         \n","                                                                 \n"," conv2d_6 (Conv2D)           (None, 5, 5, 512)         1180160   \n","                                                                 \n"," batch_normalization_5 (Bat  (None, 5, 5, 512)         2048      \n"," chNormalization)                                                \n","                                                                 \n"," conv2d_7 (Conv2D)           (None, 5, 5, 512)         2359808   \n","                                                                 \n"," batch_normalization_6 (Bat  (None, 5, 5, 512)         2048      \n"," chNormalization)                                                \n","                                                                 \n"," max_pooling2d_3 (MaxPoolin  (None, 2, 2, 512)         0         \n"," g2D)                                                            \n","                                                                 \n"," dropout_3 (Dropout)         (None, 2, 2, 512)         0         \n","                                                                 \n"," flatten (Flatten)           (None, 2048)              0         \n","                                                                 \n"," dense (Dense)               (None, 512)               1049088   \n","                                                                 \n"," dropout_4 (Dropout)         (None, 512)               0         \n","                                                                 \n"," dense_1 (Dense)             (None, 256)               131328    \n","                                                                 \n"," dropout_5 (Dropout)         (None, 256)               0         \n","                                                                 \n"," dense_2 (Dense)             (None, 128)               32896     \n","                                                                 \n"," dropout_6 (Dropout)         (None, 128)               0         \n","                                                                 \n"," dense_3 (Dense)             (None, 7)                 903       \n","                                                                 \n","=================================================================\n","Total params: 5905863 (22.53 MB)\n","Trainable params: 5902151 (22.51 MB)\n","Non-trainable params: 3712 (14.50 KB)\n","_________________________________________________________________\n"]}],"source":["num_features = 64\n","num_labels = 7\n","batc
…
